…
WARNING:tensorflow:Compiled the loaded model, but the compiled metrics have yet to be built. `model.compile_metrics` will be empty until you train or evaluate the model.
DEBUG:h5py._conv:Creating converter from 5 to 3
  Saved Keras: outputs/lenet5_fixed/model.h5
Model: "model_nhwc"
_________________________________________________________________
 Layer (type)                Output Shape              Param #   
=================================================================
 input1 (InputLayer)         [(None, 32, 32, 1)]       0         
                                                                 
 conv0 (Conv2D)              (None, 28, 28, 6)         156       
                                                                 
 act1 (Activation)           (None, 28, 28, 6)         0         
                                                                 
 avgpool3 (AveragePooling2D  (None, 14, 14, 6)         0         
 )                                                               
                                                                 
 conv4 (Conv2D)              (None, 10, 10, 16)        2416      
                                                                 
 act5 (Activation)           (None, 10, 10, 16)        0         
                                                                 
 avgpool7 (AveragePooling2D  (None, 5, 5, 16)          0         
 )                                                               
                                                                 
 flatten8 (Flatten)          (None, 400)               0         
                                                                 
 dense9 (Dense)              (None, 120)               48120     
                                                                 
 act10 (Activation)          (None, 120)               0         
                                                                 
 dense11 (Dense)             (None, 84)                10164     
                                                                 
 act12 (Activation)          (None, 84)                0         
                                                                 
 dense13 (Dense)             (None, 10)                850       
                                                                 
=================================================================
Total params: 61706 (241.04 KB)
Trainable params: 61706 (241.04 KB)
Non-trainable params: 0 (0.00 Byte)
_________________________________________________________________

============================================================
Step 4: Configuring Catapult AI NN (hls4ml)
…
